mnist_cnn.pth (torch, 39341 bytes, 6 tensors)

conv1.weight f4 [8, 1, 3, 3]
0	0x3e55c948	0.20877564
1	0xbdc4f649	-0.09617288
2	0x3d209097	0.03920039
3	0x3f18d75b	0.59703606
4	0x3f1aee98	0.60520315
5	0x3edd7112	0.43250328
6	0xbd67bfe1	-0.056579474
7	0x3f0e3a7e	0.55558
8	0x3edf6aed	0.43636265
9	0xbeb9654f	-0.36210105
10	0xbdfa5a79	-0.122242875
11	0x3f03d28b	0.5149314
12	0xbe37922a	-0.17926851
13	0x3ee0a72b	0.4387754
14	0x3eda2ba1	0.4261141
15	0x3f0609a4	0.5235846
16	0x3ee11460	0.43960857
17	0xbe978679	-0.29594782
18	0xbf5cc347	-0.8623547
19	0xbf1aa621	-0.6040974
20	0xbde8b956	-0.11363475
21	0xbdbef7c5	-0.09324602
22	0xbd35c484	-0.044376865
23	0x3ec7e61b	0.39042744
24	0x3e434559	0.19069423
25	0x3f33dba3	0.70257014
26	0x3f19e10b	0.60109013
27	0x3ec39078	0.38196158
28	0x3cf524c9	0.029924767
29	0xbea2a2c3	-0.31764802
30	0x3f1ba6f2	0.60801613
31	0xbdef7e98	-0.11694068
32	0xbf17827e	-0.5918349
33	0x3f140a39	0.578281
34	0xbdf31eee	-0.11871134
35	0xbdd9dcba	-0.106378034
36	0x3e7c2948	0.24625123
37	0xbf26b951	-0.6512652
38	0xbf3da187	-0.74074596
39	0x3e3aa782	0.18227962
40	0xbd7d0c86	-0.06177952
41	0x3da993f3	0.08280172
42	0x3f2de2a6	0.67923963
43	0x3f237f96	0.63866556
44	0x3e9ed308	0.3102038
45	0xbedb514c	-0.42835462
46	0xbe44ffd0	-0.1923821
47	0x3ea94922	0.33063608
48	0xbeb8ddc6	-0.361067
49	0x3edb326b	0.42811903
50	0x3ef30fba	0.47472936
51	0x3ebf7317	0.37392494
52	0x3e959a4a	0.29219276
53	0x3da4a86b	0.08039936
54	0xbdb762db	-0.08954402
55	0x3e08a79b	0.13345186
56	0x3ed624c4	0.41824925
57	0xbe03a88c	-0.12857264
58	0xbde39d64	-0.11114004
59	0x3e61a7ec	0.22036713
60	0x3efb354e	0.49064106
61	0x3eb68b3e	0.35653108
62	0x3d6fdaf5	0.058558423
63	0xbe58390e	-0.21115515
64	0x3eecba74	0.46236002
65	0x3efac3c8	0.48977494
66	0xbefc348f	-0.4925885
67	0x3d1579a2	0.03649295
68	0x3e774a22	0.24149373
69	0xbecc6822	-0.39923197
70	0x3c304bb4	0.0107602365
71	0x3f142589	0.57869774

conv1.bias f4 [8]
0	0xbe055ef2	-0.130245
1	0xbce1aea7	-0.027549101
2	0x3d648fcb	0.055801194
3	0xbdbdd763	-0.092695974
4	0xbd8310ee	-0.063997135
5	0x3e324275	0.17408164
6	0x3e37d34a	0.17951694
7	0xbe71ada2	-0.23601392

conv2.weight f4 [16, 8, 3, 3]
0	0xbf08a2d4	-0.53373456
1	0xbeae6629	-0.34062317
2	0xbea7bdd0	-0.32762003
3	0x3e44fe14	0.19237548
4	0x3cf7e407	0.0302601
5	0x3e6af778	0.22945964
6	0x3de4bff7	0.11169427
7	0x3e1f3bff	0.1555023
8	0x3e298b01	0.16556932
9	0xbee34926	-0.44391745
10	0xbe8761c7	-0.26441786
11	0xbead576f	-0.3385577
12	0x3e505529	0.20344986
13	0xbb4715ab	-0.0030377905
14	0xbda23c42	-0.079216495
15	0xbba3114e	-0.004976428
16	0xbdadfa6c	-0.0849503
17	0x3e195328	0.14973128
18	0xbc16851e	-0.009187011
19	0xbe3291bc	-0.17438406
20	0xbe71f59e	-0.23628852
21	0x3e87215b	0.26392636
22	0x3e63bc15	0.22239716
23	0x3e15b7c3	0.14620881
24	0x3dabbd79	0.083857484
25	0xbd09361a	-0.03349886
26	0xbdb92cb7	-0.09041732
27	0xbeecccbf	-0.4624996
28	0xbefb5455	-0.49087778
29	0xbefb6fcb	-0.4910873
30	0xbeb2623d	-0.34840575
31	0x3d3f7158	0.046738952
32	0x3e5443af	0.20728944
33	0xbe2347aa	-0.15945306
34	0xbd65e6f2	-0.05612845
35	0xbde43b18	-0.11144084
36	0xbe329545	-0.17439754
37	0x3d56bbf6	0.052425347
38	0xbec12488	-0.37723184
39	0x3e615742	0.22005942
40	0x3dee366b	0.11631473
41	0x3e14529d	0.1448464
42	0xbe18fceb	-0.1494023
43	0xbd8a687d	-0.06758211
44	0x3c5931ed	0.013256532
45	0x3c169915	0.009191771
46	0xbdd37922	-0.103258386
47	0xbd8d05e4	-0.06885889
48	0x3e02ba6e	0.1276643
49	0x3dde3f5e	0.1085193
50	0xbc9c681c	-0.019092612
51	0x3e2391be	0.15973565
52	0x3db0097f	0.08595561
53	0x3ddea887	0.10871988
54	0xbdb348cc	-0.08754119
55	0x3caa1ac6	0.02076472
56	0x3cdabfcd	0.026702786
57	0xbbd5071d	-0.006501092
58	0x3d961b3a	0.07329412
59	0x3e147ae8	0.1450001
60	0xbb2f759f	-0.0026772988
61	0x3da85aa5	0.08220414
62	0xbccb9c31	-0.024854751
63	0xbe97ce04	-0.29649365
64	0xbeb68733	-0.35650024
65	0xbe5f9926	-0.21835765
66	0xbe270f5b	-0.16314451
67	0xbdbab698	-0.09116858
68	0xbdd20c10	-0.10256207
69	0xbb640525	-0.0034793105
70	0x3eb3e006	0.35131854
71	0x3e75c089	0.23999228
72	0xbcbf6eb0	-0.02336821
73	0x3c0779ca	0.008268783
74	0xbc4c47ae	-0.012468262
75	0x3e4b0f8c	0.1983015
76	0x3e152686	0.14565477
77	0x3e43dc63	0.1912704
78	0xbdd40e5d	-0.10354302
79	0x3e4d0bb6	0.20023999
80	0x3e622078	0.22082698
81	0x3e39ead5	0.18155988
82	0x3de2d5c5	0.110759296
83	0x3d966e41	0.07345248
84	0x3dbdaaf5	0.09261123
85	0xbd1b5d5e	-0.03793084
86	0x3e243762	0.16036752
87	0x3d326a9a	0.043558694
88	0xbc892cb1	-0.016744943
89	0x3dd59f65	0.10430793
90	0x3cf0e8a2	0.029407803
91	0x3dbec98d	0.093157865
92	0xbe2deae7	-0.1698414
93	0x3c3b80ca	0.01144428
94	0xbd4de3f4	-0.05026622
95	0x3e39cba9	0.18144096
96	0xbea09af5	-0.31368223
97	0xbed22d8b	-0.41050372
98	0xbe8eeaf1	-0.2791362
99	0xbe0326ae	-0.12807724
100	0xbe1b1324	-0.1514402
101	0x3d8a5a4b	0.06755503
102	0xbc93d977	-0.018048031
103	0xbd3bd978	-0.04586169
104	0xbd5164b9	-0.051121447
105	0xbe1a9507	-0.15095912
106	0xbea31a47	-0.31855986
107	0xbea9ca62	-0.33162218
108	0xbd5cb946	-0.053887628
109	0xbe814bd7	-0.25253174
110	0xbe6a12af	-0.2285869
111	0xbbe26bd8	-0.0069098286
112	0x3e878d42	0.2647496
113	0x3efa355c	0.48868835
114	0xbe5b5b5e	-0.21421573
115	0x3e5bbe02	0.21459201
116	0x3e0512e1	0.12995483
117	0x3e0f8ddb	0.14018957
118	0x3d9f4a3c	0.07777831
119	0x3d80fced	0.06298242
120	0x3e2407c2	0.16018584
121	0xbd180622	-0.037115224
122	0x3da20fb8	0.07913154
123	0xbcaf9134	-0.021431543
124	0xbe4faf42	-0.202817
125	0xbe2e560e	-0.17025015
126	0xbc3d7108	-0.011562593
127	0xbdeecf8c	-0.1166068
128	0xbd6e646e	-0.058201246
129	0x3d9070e3	0.070527814
130	0xbca499ea	-0.020092923
131	0x3cab2e40	0.020896077
132	0x3d50ccdf	0.05097663
133	0xbe04e847	-0.12979232
134	0xbbc258e0	-0.005931005
135	0xbe193de7	-0.1496502
136	0xbe59e052	-0.21276978
137	0xbdad6b01	-0.08467675
138	0xbd602436	-0.054722033
139	0xbdfd3a2b	-0.1236461
140	0xbe08e67e	-0.13369176
141	0x3e276ea3	0.16350798
142	0x3e033898	0.12814558
143	0x3e0b2186	0.13587007
144	0xbe4bd535	-0.19905551
145	0x3d813837	0.0630955
146	0xbe77dbe0	-0.2420497
147	0x3d55ceaf	0.052199062
148	0x3e633ae8	0.2219044
149	0xbdfa1fec	-0.1221312
150	0x3e2f08f5	0.1709326
151	0x3cdcf1ad	0.026970709
152	0x3dc0bbbc	0.094108075
153	0xbe5cbbe9	-0.21556057
154	0x3e791a2f	0.24326394
155	0xbdf15803	-0.11784365
156	0x3e4c7b33	0.19968872
157	0x3e216ef2	0.15764979
158	0xbe7ed7f4	-0.24887067
159	0x3d299625	0.041402955
160	0x3dc0bcf3	0.09411039
161	0xbdca85a0	-0.09888768
162	0x3d0060ff	0.031342503
163	0x3dcdb66b	0.10044559
164	0xbf2d48c8	-0.6768918
165	0x3de5a1a5	0.11212472
166	0xbe29a392	-0.16566303
167	0xbe41e2f7	-0.18934236
168	0x3ce61b3a	0.028089155
169	0xbe35367c	-0.17696565
170	0xbdfe295a	-0.12410231
171	0xbf354339	-0.708057
172	0x3e9bd543	0.30436143
173	0x3f0feca6	0.5622047
174	0xbe893a56	-0.2680232
175	0x3ec9df6a	0.39428264
176	0x3f0b7b73	0.54485244
177	0xbda77532	-0.0817665
178	0x3e8785da	0.26469308
179	0x3d860c78	0.06545347
180	0xbf523b4f	-0.8212175
181	0xbec03f26	-0.37548178
182	0x3e29caa6	0.1658121
183	0xbf26b548	-0.65120363
184	0xbdbdd648	-0.092693865
185	0x3eac0902	0.33600622
186	0xbf00b074	-0.50269246
187	0x3d9f6220	0.07782388
188	0x3db24399	0.087042995
189	0x3cc73163	0.024315542
190	0x3e06e71d	0.131741
191	0xbe66bb29	-0.22532333
192	0x3c3dd884	0.011587266
193	0x3c05e9c6	0.008173412
194	0xbd0dc639	-0.034612868
195	0x3e12a6dd	0.14321466
196	0x3d425645	0.047445554
197	0xbdd60e12	-0.104519024
198	0xbe3bff74	-0.18359166
199	0x3e0f472e	0.13991997
200	0xbe0e88ce	-0.13919374
201	0x3dacefe0	0.0844419
202	0x3cad785b	0.021175554
203	0xbd43253a	-0.047642924
204	0x3e042205	0.12903602
205	0x3c5a383a	0.0133190695
206	0xbde672fc	-0.112524
207	0x3e43063f	0.19045351
208	0x3ebd0485	0.3691751
209	0xbe8d93a2	-0.27651697
210	0x3dd29a08	0.102832854
211	0x3eba264d	0.36357346
212	0xbed26404	-0.4109193
213	0xbc7c7973	-0.015409815
214	0x3dfce34a	0.123480394
215	0xbe9429e3	-0.28938207
216	0x3e1e8dda	0.154838
217	0xbe8677dd	-0.26263323
218	0xbecb9fc9	-0.39770344
219	0x3e6c6039	0.23083581
220	0xbec3f7b5	-0.38274923
221	0x3db66986	0.08906846
222	0xbd27b87f	-0.040947434
223	0xbe068c77	-0.1313952
224	0x3df1403d	0.117798306
225	0xbdb08de7	-0.08620816
226	0xbe9b76c0	-0.30364037
227	0xbee1d774	-0.4410969
228	0x3e25934b	0.16169469
229	0xbe84a633	-0.2590805
230	0x3d259665	0.04042663
231	0xbca23b46	-0.019803654
232	0xbea3b7f0	-0.3197627
233	0x3e979132	0.29602963
234	0x3debd2a8	0.11514789
235	0xbea8e20e	-0.32984966
236	0xbd91a0b3	-0.07110729
237	0xbd2b64f7	-0.041844334
238	0xbf0f7471	-0.5603705
239	0x3eb7e804	0.359192
240	0xbeb2632a	-0.3484128
241	0x3d3b06b1	0.04566068
242	0x3e8ee15c	0.2790631
243	0x3e91a849	0.28448704
244	0x3e8fe2e0	0.2810278
245	0xbeaa9c90	-0.33322573
246	0x3e853e0e	0.26023906
247	0x3ede4a60	0.4341612
248	0xbefb5750	-0.49090052
249	0x3e75d93e	0.24008653
250	0x3e13623d	0.14392944
251	0xbe3ed920	-0.18637514
252	0x3e70f76d	0.23531885
253	0x3e272aa4	0.1632486
254	0xbe57b4e7	-0.21065103
255	0x3e9cfef0	0.30663252

conv2.bias f4 [16]
0	0x3da8d2f0	0.08243358
1	0xbe3f1033	-0.18658523
2	0x3cbe1e0c	0.023207687
3	0x3d7b43e4	0.061344042
4	0xbe528539	-0.20558633
5	0xbe16eb77	-0.1473826
6	0xbdca9032	-0.09890784
7	0xbd535cfd	-0.051602352
8	0xbea52688	-0.3225596
9	0xbda8888c	-0.08229169
10	0xbd379a92	-0.044825144
11	0x3d24190d	0.040062953
12	0xbdb8906d	-0.09011922
13	0x3c0988a3	0.008394393
14	0xbe31f082	-0.17376903
15	0xbd14446b	-0.03619806

fc1.weight f4 [10, 784]
0	0x3cf28a32	0.029606912
1	0xba82b043	-0.0009970743
2	0x3baa496f	0.0051967422
3	0xbd2a0e0a	-0.041517295
4	0xbda45012	-0.08023085
5	0x3d2cfd3c	0.04223369
6	0x3bc8769d	0.0061176554
7	0x3daa7da6	0.08324747
8	0x3c707b99	0.0146779055
9	0xbd788bde	-0.060680263
10	0x3d069e7f	0.032865997
11	0xbca37b64	-0.019956298
12	0xbdcc1a43	-0.099659465
13	0xbc884547	-0.016634597
14	0x3d67dd0f	0.056607302
15	0x3c073074	0.008251298
16	0x3d495635	0.04915448
17	0x3d486547	0.04892471
18	0xbdaaa1a7	-0.08331614
19	0xbe04ccd1	-0.12968756
20	0x3c36812e	0.011139197
21	0x3d29298f	0.0412994
22	0x3ccc8482	0.024965528
23	0xbd3495e1	-0.04408825
24	0xbeda7ab9	-0.42671755
25	0xbe297102	-0.16547015
26	0xbe8486c9	-0.25884083
27	0xbe104e72	-0.14092425
28	0x3cbbc608	0.022921577
29	0xbdcbafa7	-0.099456124
30	0xbe58b4d4	-0.2116273
31	0xbdebffbf	-0.11523389
32	0xbd17586d	-0.036949564
33	0x3b13291d	0.0022454925
34	0xbd4552f9	-0.048174832
35	0xbc511644	-0.012761656
36	0xbe400bef	-0.18754552
37	0xbea15f97	-0.31518242
38	0xbe3496ca	-0.17635646
39	0xbc241007	-0.010013587
40	0x3d1b42f4	0.03790565
41	0x3d1025e1	0.035192374
42	0xbbe6c7ea	-0.0070428746
43	0x3d5a1934	0.05324669
44	0x3adc3dd5	0.0016803095
45	0x3d99c48d	0.07508192
46	0x3db22265	0.086979665
47	0x3d3c8935	0.04602929
48	0x3c660857	0.014040074
49	0xbdea2980	-0.11433697
50	0xbcded41d	-0.027200753
51	0x3c39151e	0.011296539
52	0xbcca9d9f	-0.024733363
53	0x3c9d4580	0.01919818
54	0xbd4c3f5e	-0.04986512
55	0xbc786eef	-0.015163167
56	0x3cbddc1f	0.023176251
57	0x3b9d29d9	0.0047962484
58	0xbd31f80f	-0.043449458
59	0x3d0b1051	0.033951107
60	0x3ce62f49	0.02809872
61	0x3d310e68	0.04322663
62	0x3be109f7	0.006867643
63	0x3d74aa56	0.059732758
64	0xbd8f90d5	-0.070100464
65	0xbc6a84e5	-0.014313911
66	0xbc306d9c	-0.01076832
67	0x3a7f155c	0.0009730661
68	0x3d07682a	0.033058323
69	0x3b8ecd4b	0.004357969
70	0x3cbf706a	0.023369033
71	0x3cacd617	0.02109818
72	0xbd68d932	-0.05684776
73	0xbe5b9c14	-0.21446258
74	0xbe1e31e2	-0.15448716
75	0x3dbb7a65	0.09154204
76	0x3d1e8726	0.038703106
77	0x3c46b946	0.012129134
78	0x3d94e68e	0.07270537
79	0x3dd2fada	0.103017524
80	0xbd2c2c5c	-0.042034492
81	0xbc609ba2	-0.013708981
82	0x3d163c7c	0.036678776
83	0x3d3600fd	0.044434536
84	0xbcbd4418	-0.023103759
85	0x3d288f1c	0.041152105
86	0xbc5e96ac	-0.013585728
87	0x3c8a9d3f	0.016920684
88	0x3c5d3d46	0.013503378
89	0x3c5e0ff0	0.0135536045
90	0xbdc32fb0	-0.0953058
91	0xbd1d78eb	-0.038445394
92	0xbda72800	-0.08161926
93	0xbdf277ea	-0.11839278
94	0xbdf00b29	-0.11720879
95	0x3c58e40d	0.013237965
96	0xbdc43991	-0.095812924
97	0xbbeb6bcf	-0.0071844826
98	0x3c9aa0fd	0.018875593
99	0xbd1225dd	-0.03568064
100	0xbc8eb000	-0.017417908
101	0x3cf3b3ce	0.029748823
102	0xbde57948	-0.11204773
103	0xbd56d4bc	-0.052448973
104	0x3d182d60	0.037152648
105	0xbd552b37	-0.052043166
106	0xbd02d618	-0.031942457
107	0xbda9a52c	-0.08283457
108	0xbbea150b	-0.007143622
109	0xbda862ec	-0.08221993
110	0xbda257fb	-0.07926937
111	0xbd86abe2	-0.06575753
112	0xbd81e85b	-0.063431464
113	0xbd5cf403	-0.053943645
114	0xbb8d74eb	-0.004316916
115	0xbce52c94	-0.027975358
116	0xbc80de18	-0.015730903
117	0x3cf04b71	0.029332848
118	0x3d80bfd3	0.062865876
119	0x3d0687c8	0.032844335
120	0x3cf678af	0.030086843
121	0x3e0497d4	0.12948543
122	0x3d938afb	0.07204243
123	0x3d3c4c5d	0.045971263
124	0x3cbed673	0.023295617
125	0x3da3149b	0.079629146
126	0xbb5b5d75	-0.0033472453
127	0x3df2a4dc	0.11847851
128	0x3e056b0b	0.13029115
129	0xbd306775	-0.043067414
130	0x3dac8b72	0.084250346
131	0x3b414f5e	0.002949677
132	0x3e02fae7	0.12791024
133	0xbcf3e59d	-0.029772574
134	0x3dcb6d9d	0.099330164
135	0x3d84eee9	0.06490881
136	0xbe2268c7	-0.15860282
137	0xbba58944	-0.0050517637
138	0xbda4069d	-0.08009074
139	0xbd4e71bc	-0.050401434
140	0xbcf31e8d	-0.029677654
141	0x3d2ff11e	0.042954557
142	0xbe303136	-0.17206272
143	0xbeb5efd4	-0.35534537
144	0xbe830a7c	-0.25593936
145	0xbe4df286	-0.20112047
146	0x3c04d0f9	0.008106464
147	0x3bd42bec	0.0064749625
148	0x3be02e2d	0.006841442
149	0x3d106c39	0.03525946
150	0xbccbc814	-0.024875678
151	0xbd068832	-0.03284473
152	0xbe1b1533	-0.15144806
153	0xbcdf1c66	-0.027235221
154	0x3de49a62	0.11162259
155	0xbcbd120b	-0.023079893
156	0xbd11df8c	-0.03561358
157	0x3a31b9e6	0.0006779715
158	0xbdc410e2	-0.09573533
159	0xbe1bc545	-0.15211971
160	0x3ccc8319	0.024964856
161	0x3dd6ea85	0.1049395
162	0x3c8bff88	0.01708962
163	0x3cd4d1b3	0.025978899
164	0xbdce3c3e	-0.10070084
165	0xbd163efe	-0.036681168
166	0x3d221a3a	0.039575793
167	0x3d7109e5	0.058847327
168	0x3d83a593	0.06428065
169	0x3d2007d6	0.039069973
170	0xbd25857a	-0.040410496
171	0x3d3b0e53	0.045667958
172	0xbc4a17b9	-0.0123347575
173	0x3db841ec	0.089969486
174	0x3d568344	0.05237128
175	0xbd3d25dc	-0.046178684
176	0xbd9e0767	-0.07716256
177	0xbdb6d8a8	-0.08928043
178	0x3e2f3581	0.17110254
179	0x3da17e2f	0.07885396
180	0xbdabcf0a	-0.08389099
181	0x3bf8f945	0.0075980746
182	0xbc857836	-0.016292673
183	0xbe2f4cc2	-0.17119125
184	0xbdd2e5ae	-0.10297714
185	0xbdb88450	-0.090096116
186	0xbdfbda71	-0.12297524
187	0xbdc4170b	-0.095747076
188	0xbd79a865	-0.06095161
189	0xbd22497b	-0.039620858
190	0xbd250fe8	-0.040298373
191	0xbd0d4b6e	-0.034495763
192	0xbe67f39a	-0.2265152
193	0xbe5c2ec7	-0.21502219
194	0xbdc0e16c	-0.09417996
195	0xbdb5b897	-0.08873098
196	0xbde5e849	-0.112259455
197	0xbd2bce31	-0.041944686
198	0x3c3007f7	0.0107440865
199	0xbd11eb05	-0.035624523
200	0xbdd9232f	-0.10602414
201	0xbda7e59b	-0.08198091
202	0xbdb1a3be	-0.086738095
203	0xbc75badf	-0.014998167
204	0x3ca2c6cd	0.019870186
205	0xbdadfdef	-0.084956996
206	0x3bfab2c5	0.0076507055
207	0x3c8e08ee	0.017338242
208	0xbe4eb762	-0.20187142
209	0xbdfb57fa	-0.122726396
210	0x3dc1a4c6	0.09455256
211	0x3c017ae3	0.007902834
212	0x3d8e00b2	0.06933726
213	0x3d812379	0.06305594
214	0xbd1391ff	-0.036027905
215	0xbb705a06	-0.0036674752
216	0xbe8f2459	-0.2795742
217	0x3de37cf0	0.11107814
218	0x3dd3e3f6	0.103462145
219	0x3dd10604	0.102062255
220	0x3d67c2fa	0.05658243
221	0x3e0a8114	0.13525802
222	0x3de07e1e	0.10961555
223	0xbe0557e8	-0.13021815
224	0x3def5371	0.11685837
225	0x3d07406c	0.03302042
226	0x3db98b2e	0.090597495
227	0x3b58cadd	0.00330799
228	0xbd62c54b	-0.055363934
229	0x3dbf4e31	0.09341086
230	0x3d79fd11	0.06103236
231	0x3d2da63d	0.042394865
232	0x3d7fff62	0.06249941
233	0xbdad60c8	-0.08465725
234	0xbd1ce49a	-0.03830395
235	0x3d19e542	0.037572153
236	0xbd040f01	-0.03224087
237	0x3dd48915	0.10377709
238	0x3dcea723	0.100904725
239	0xbc1cb3c2	-0.009564342
240	0xbdbbeb14	-0.09175697
241	0xbdfbc51f	-0.12293457
242	0xbdd86b8b	-0.10567387
243	0x3cbe6d24	0.023245402
244	0xbd9c9371	-0.0764531
245	0xbd4ac449	-0.0495036
246	0xbd361f1a	-0.044463255
247	0x3c9704e8	0.018434957
248	0x3be6692b	0.00703158
249	0xbc221890	-0.0098935515
250	0xbd4e0529	-0.05029789
251	0xbd15d975	-0.036584336
252	0xbd8fe666	-0.07026367
253	0xbcc75063	-0.024330324
254	0x3b7ead19	0.0038860498
255	0x3d540f5f	0.05177247

fc1.bias f4 [10]
0	0x3c7d00f1	0.015442119
1	0x3cdc8c03	0.026922232
2	0xbae3961a	-0.0017363459
3	0xbae84733	-0.0017721414
4	0xbda324af	-0.07965981
5	0x3db33340	0.087500095
6	0xbcad7851	-0.021175535
7	0x3d2a6c9e	0.04160749
8	0xbd0b397a	-0.03399036
9	0xbcb9ccfd	-0.022680754
